qingfenzhidaRGCN_2.pth (torch, 797551 bytes, 136 tensors)

predictor.relation_weights.0 f4 [32]
-1.7017097 0.58057445 0.5840877 -2.0802758 0.73274654 -0.31319976 -0.7506697 0.44614348
1.2418603 1.0477417 -0.79553646 -0.10337686 -2.2344193 -0.7685798 1.1872358 -0.95234954
-0.6511397 0.5965742 0.12484724 0.08512636 1.8284656 1.1108581 0.33953512 -0.6181492
-0.47545826 0.84008515 0.144096 1.83519 -0.70266724 0.35981184 0.468838 0.5555839
00000000: a0d1 d9bf 87a0 143f c686 153f 3d23 05c0
00000010: 4795 3b3f b85b a0be e42b 40bf eb6c e43e
00000020: 47f5 9e3f 661c 863f 47a8 4bbf 3fb7 d3bd
00000030: ba00 0fc0 a5c1 44bf 58f7 973f 2ecd 73bf
00000040: 17b1 26bf 16b9 183f e9af ff3d bb56 ae3d
00000050: 290b ea3f 9930 8e3f 8cd7 ad3e 073f 1ebf
00000060: 446f f3be d20f 573f e78d 133e 82e7 ea3f
00000070: 00e2 33bf 4239 b83e 890b f03e bf3a 0e3f

predictor.relation_weights.1 f4 [32]
-0.4525411 3.3207364 1.3375355 0.5605775 1.5100027 -0.75721884 2.0736523 1.9816183
-1.7138021 0.39954352 -0.7103766 1.5953546 -0.2842233 0.33050838 -0.41951257 -0.5988198
1.0277147 -0.05388687 0.060501266 0.978459 1.0659994 -0.02342217 0.79142153 -1.065379
0.6616143 0.11137135 1.3910092 -0.77403957 -1.0051532 0.36112744 0.42100465 1.4871788
00000000: 78b3 e7be f286 5440 5d34 ab3f 0282 0f3f
00000010: c547 c13f 18d9 41bf b8b6 0440 aba5 fd3f
00000020: de5d dbbf f890 cc3e 3edb 35bf 9434 cc3f
00000030: b785 91be 6538 a93e 5aca d6be 414c 19bf
00000040: 288c 833f 7bb8 5cbd 2dd0 773d 4a7c 7a3f
00000050: ab72 883f dadf bfbc 9a9a 4a3f 575e 88bf
00000060: 8e5f 293f aa16 e43d 970c b23f 7527 46bf
00000070: dca8 80bf b2e5 b83e ec8d d73e e05b be3f

predictor.relation_weights.2 f4 [32]
1.1356254 0.36609924 0.6638464 0.044247273 1.801359 0.13851187 0.11058711 0.086405225
0.055606287 -0.020732358 0.43345883 -2.9417815 -1.2970936 -0.53670496 -0.85627156 1.5117166
-0.3335943 -0.5194977 -1.059382 -0.95973593 1.1223996 2.7826338 1.4250959 0.86956036
-0.46412355 -0.88105786 0.14385732 -0.009894373 0.95559263 0.5501722 -0.4644002 0.05585973
00000000: 2c5c 913f 5c71 bb3e d6f1 293f a13c 353d
00000010: ef92 e63f 0ed6 0d3e 7f7b e23d 39f5 b03d
00000020: 6bc3 633d e8d6 a9bc 51ee dd3e 2646 3cc0
00000030: 2a07 a6bf 7f65 09bf 9d34 5bbf ee7f c13f
00000040: dfcc aabe cdfd 04bf d499 87bf 41b1 75bf
00000050: caaa 8f3f ac16 3240 8b69 b63f 829b 5e3f
00000060: 9aa1 edbe 028d 61bf 554f 133e 021c 22bc
00000070: b8a1 743f 16d8 0c3f ddc5 edbe 2ccd 643d

predictor.relation_weights.3 f4 [32]
-1.3328516 1.0561179 0.9504417 -1.3742367 0.68074566 0.76016223 -0.28432176 0.5561067
0.46336117 -0.18503389 0.16120426 -1.5021429 -0.06767841 0.7037143 -1.2998786 -0.37172195
-0.42747632 -0.7594664 0.2967268 -0.102315925 -1.7594435 1.0527897 0.17112419 -1.293157
0.14573303 0.88151354 0.5806314 0.09145143 1.5434387 0.2912611 -1.890487 -0.49592265
00000000: e29a aabf df2e 873f 2650 733f fde6 afbf
00000010: 5945 2e3f fe99 423f 9f92 91be 025d 0e3f
00000020: ad3d ed3e 8679 3dbe bb12 253e 3846 c0bf
00000030: fa9a 8abd 9f26 343f 6c62 a6bf 5752 bebe
00000040: 2dde dabe 646c 42bf 93ec 973e 038b d1bd
00000050: 7235 e1bf d0c1 863f 2e3b 2f3e 2b86 a5bf
00000060: 0a3b 153e dfaa 613f 42a4 143f e34a bb3d
00000070: 668f c53f 2d20 953e 7afb f1bf 93e9 fdbe

predictor.relation_weights.4 f4 [32]
1.084706 0.5424021 1.7243036 -2.0767043 -1.3055717 -1.157621 -0.22655198 2.1405377
-0.74552107 0.7121236 1.6617342 -0.16231628 1.1690667 -0.4300731 0.37673196 -0.7489553
1.3867117 0.39852855 -0.3517897 1.4077051 -0.1638068 -0.78690803 3.0579643 -2.1107233
-1.2424396 0.47457874 -0.6877111 -0.12037111 -1.2085023 -0.8158437 1.5434879 -0.1074345
00000000: a5d7 8a3f ddda 0a3f fbb5 dc3f b9e8 04c0
00000010: f91c a7bf ed2c 94bf 3efd 67be 92fe 0840
00000020: 78da 3ebf bb4d 363f b5b3 d43f 3d36 26be
00000030: faa3 953f 8b32 dcbe 03e3 c03e 89bb 3fbf
00000040: c57f b13f ef0b cc3e c81d b4be ae2f b43f
00000050: f8bc 27be ce72 49bf b0b5 4340 1716 07c0
00000060: 4308 9fbf fcfb f23e d60d 30bf 2185 f6bd
00000070: 34b0 9abf 22db 50bf 0391 c53f 9e06 dcbd

predictor.relation_weights.5 f4 [32]
0.10723668 1.2960387 -0.22923133 1.922558 -0.41599682 -0.30893496 -1.5507697 0.626041
0.6355146 -0.70756483 -2.0032854 -1.3566915 0.67023635 0.5663712 -0.08321058 -0.89828074
-1.2004652 -0.24307843 -1.7672065 -0.4089413 0.7916679 -0.35085744 0.37687543 0.9486068
0.8613835 0.76316845 0.052241806 0.52890533 -1.0737325 -1.2965648 -0.7101203 1.5162194
00000000: e89e db3d 99e4 a53f 9ebb 6abe 6116 f63f
00000010: 89fd d4be b92c 9ebe 9f7f c6bf 3944 203f
00000020: 16b1 223f f822 35bf d435 00c0 11a8 adbf
00000030: 9c94 2b3f b4fd 103f 4f6a aabd baf5 65bf
00000040: d8a8 99bf 8de9 78be d333 e2bf c160 d1be
00000050: bfaa 4a3f 96a3 b3be d1f5 c03e e5d7 723f
00000060: a183 5c3f 025f 433f 81fb 553d 5766 073f
00000070: 1170 89bf d6f5 a5bf 72ca 35bf 7a13 c23f

predictor.relation_weights.6 f4 [32]
-0.39454123 0.17182851 0.1858166 -0.7589766 -0.4550564 -1.2196742 1.0363106 -1.7982777
-1.2478755 -0.022174334 -0.61963886 -0.7969837 -0.40626857 -0.44101104 -2.4298742 0.74460816
1.2446395 1.3098699 1.6445847 0.7105473 -0.6690993 1.3891345 -1.6470639 0.5297893
-0.29786026 0.56489223 -1.2649612 0.096799016 0.44783497 -0.24714343 0.6038412 0.059079356
00000000: 4f01 cabe d0f3 2f3e b546 3e3e 4a4c 42bf
00000010: 27fd e8be 491e 9cbf d3a5 843f f72d e6bf
00000020: 62ba 9fbf f3a6 b5bc a7a0 1ebf 2007 4cbf
00000030: 6f02 d0be 33cc e1be 0f83 1bc0 a49e 3e3f
00000040: 5950 9f3f d1a9 a73f c081 d23f 6ee6 353f
00000050: 174a 2bbf 29cf b13f fdd2 d2bf 46a0 073f
00000060: 2481 98be c79c 103f 40ea a1bf 903e c63d
00000070: a04a e53e 2b13 7dbe 5695 1a3f 32fd 713d

predictor.relation_weights.7 f4 [32]
1.1872164 1.3131262 0.40880513 -1.5320851 -0.6240891 -0.45966527 -2.004836 0.70018154
-1.425552 -1.3429132 0.003534236 -0.48775014 -0.21099839 0.913864 -1.9579475 -0.52295834
-0.35362142 0.4756274 -0.110421814 0.44424918 1.6330485 -1.4949455 0.65844023 0.71852154
1.6071246 1.3851432 -0.004754694 -0.8651814 1.7283622 -0.16403013 -0.24755165 -1.1675465
00000000: b5f6 973f 8514 a83f e84e d13e 5d1b c4bf
00000010: 4ec4 1fbf 3f59 ebbe 3c4f 00c0 193f 333f
00000020: 7d78 b6bf 94e4 abbf a49e 673b 63ba f9be
00000030: f60f 58be fef2 693f 069e fabf 99e0 05bf
00000040: de0d b5be 6f85 f33e d524 e2bd a174 e33e
00000050: bc07 d13f 605a bfbf 8a8f 283f 07f1 373f
00000060: 42b6 cd3f 5f4c b13f 44cd 9bbb 877c 5dbf
00000070: f93a dd3f 84f7 27be 2e7e 7dbe 2a72 95bf

predictor.relation_weights.8 f4 [32]
0.4402484 -0.065517545 -0.002284495 0.7832819 -1.9386283 0.38850588 1.2106822 0.111431696
0.8381888 1.3724862 0.23954123 0.9995863 1.3653771 0.47944075 2.450251 -1.4461098
-2.270552 1.6803229 -0.6273161 0.6067971 0.86279136 1.7330441 0.35297948 0.34349346
-2.013706 0.36324537 0.9477031 2.7200196 1.1381476 -1.7971245 -0.86651427 -2.6838648
00000000: 3d68 e13e 102e 86bd 77b7 15bb 2a85 483f
00000010: f924 f8bf 3eea c63e a2f7 9a3f 4d36 e43d
00000020: 8b93 563f a1ad af3f 4c4a 753e e3e4 7f3f
00000030: adc4 ae3f 4279 f53e ead0 1c40 201a b9bf
00000040: b950 11c0 d214 d73f ca97 20bf 0e57 1b3f
00000050: e5df 5c3f 64d4 dd3f bab9 b43e 60de af3e
00000060: 8fe0 00c0 4cfb b93e ac9c 723f cd14 2e40
00000070: d2ae 913f 2d08 e6bf e1d3 5dbf 71c4 2bc0

predictor.relation_weights.9 f4 [32]
-1.2634844 -0.43889263 -0.35076588 0.66499096 -1.136648 -0.66942877 1.7217261 0.61266
0.51398516 1.296737 0.110287584 -0.3848765 -0.52217644 -0.8777187 -0.29312465 0.99611694
0.2922021 -0.06887296 -0.78119135 -1.1554015 -1.4348539 -0.4498996 -1.3679096 -1.0394758
-0.9069639 0.011353143 -2.0202532 -0.0459002 -0.3860874 1.0334723 0.6108927 0.13427576
00000000: dbb9 a1bf 89b6 e0be 9697 b3be d93c 2a3f
00000010: af7d 91bf af5f 2bbf 8561 dc3f 49d7 1c3f
00000020: 8894 033f 7afb a53f 75de e13d 880e c5be
00000030: 5bad 05bf 2cb2 60bf 6f14 96be 8501 7f3f
00000040: 839b 953e 440d 8dbd 28fc 47bf 32e4 93bf
00000050: 4ba9 b7bf 3e59 e6be a917 afbf 8b0d 85bf
00000060: c92e 68bf 8802 3a3c d44b 01c0 d901 3cbd
00000070: 3fad c5be d248 843f 7763 1c3f 967f 093e

predictor.gate.0.weight f4 [64, 96]
0.022208609 -0.0530606 0.0035192077 -0.10239217 -0.0014197747 -0.15299614 -0.1523248 0.07392041
-0.022304963 0.06329221 -0.101979084 -0.2091901 0.08942855 0.17403474 -0.1348017 0.0766258
-0.14988238 -0.10829833 -0.12739727 -0.16454053 0.12861365 -0.018032439 -0.16084567 0.14084874
-0.105359495 -0.11144469 -0.12991935 -0.087924965 0.030111104 0.19019127 -0.032972235 0.12292655
0.1137565 0.21837734 -0.022301832 -0.115705445 0.07938704 0.09944456 -0.2547091 -0.16775084
0.08916129 0.19923195 0.18682094 0.013467159 -0.10303159 -0.15138677 0.18075031 0.11683194
-0.14884344 -0.05260334 0.14476998 0.12655905 0.10714911 0.2334276 0.147447 -0.065672584
0.01546377 0.119337656 0.07513859 0.19695193 -0.17729361 0.035562944 -0.06491107 0.119752884
0.025038218 0.18100098 0.17001557 -0.112840146 0.047173407 -0.13541447 0.10213113 0.18100075
-0.03339271 0.15443629 0.14057675 -0.12782511 -0.042431556 -0.15884738 -0.15361339 0.08591235
0.12302944 -0.18841736 -0.14326313 -0.028937276 0.07703311 -0.010522721 0.19110523 -0.16912308
-0.19921033 0.10902361 -0.07148155 -0.11031065 -0.0637827 0.11532699 0.0884344 -0.027227096
-0.041435864 0.13195151 -0.06538881 -0.03205494 0.15297508 -0.023768313 -0.19298798 -0.08051643
0.037042804 0.016321596 0.020907035 0.07660151 -0.008699207 -0.12043348 -0.045011196 0.057888694
-0.23566951 -0.11035275 0.15017319 -0.089088425 0.017204145 0.036386255 0.12415019 -0.005255635
0.0045904703 0.15251893 0.017894093 -0.09276823 -0.08469931 -0.014279022 -0.079618305 -0.0053859996
0.13435042 0.27129945 -0.119309425 0.029361477 0.13834462 -0.07509708 0.024612142 -0.23514165
0.15938307 0.13537899 0.12771817 0.051042683 0.04341104 0.13517547 -0.0010718943 0.11662614
-0.2866834 -0.023930073 -0.18242878 -0.25734574 0.16510579 0.19920866 0.070002615 0.10951384
0.3186114 0.09141087 0.007778644 0.23695564 -0.10151272 0.09882027 0.06560868 0.21660128
-0.05464778 0.28778192 0.12886235 0.08987042 0.2626514 -0.19104116 -0.03785372 0.23720047
-0.094112374 -0.08337418 -0.18093373 -0.12148367 0.027777756 0.14924434 -0.24407335 -0.14562857
-0.032094873 -0.21752726 -0.07214472 0.0011248501 -0.0009123381 0.062077276 0.23389968 0.041592844
0.21274088 0.21305633 0.21552517 -0.16291898 -0.07131778 0.062345047 -0.16299 0.1383847
0.036026306 -0.108410105 0.023442952 0.09373411 -0.052000705 0.01113677 -0.020757992 0.08828629
-0.03252421 -0.09156743 -0.0010523569 -0.17886221 0.043323632 0.056816764 -0.06550381 -0.08985436
-0.017050533 -0.0026456611 -0.0781386 0.015854012 -0.039066117 -0.13116005 -0.050920065 0.03760428
-0.044256113 -0.041132197 -0.045365416 -0.07817956 0.16266292 0.069075644 0.05547735 0.056516845
-0.0057352763 -0.04888242 -0.043469053 0.13438979 0.041234523 -0.10870998 0.018874666 0.08799355
-0.07091393 -0.079457566 -0.0965148 -0.018475601 0.08731582 0.1293334 -0.089245185 0.0077940198
0.10659047 -0.019700073 -0.15850797 -0.066180535 -0.023999302 -0.041127015 -0.11439689 0.04087375
0.05109321 -0.09504173 -0.049277946 -0.0964561 0.14814955 -0.07087139 -0.0582302 -0.10798792
00000000: d4ee b53c 1256 59bd 82a2 663b fcb2 d1bd
00000010: bc17 baba 05ab 1cbe 08fb 1bbe 9563 973d
00000020: e6b8 b6bc 599f 813d 69da d0bd ee35 56be
00000030: 5126 b73d 2a36 323e 7509 0abe fded 9c3d
00000040: c47a 19be 84cb ddbd 6e74 02be 507d 28be
00000050: 4cb3 033e c4b8 93bc bab4 24be a73a 103e
00000060: b8c6 d7bd 1d3d e4bd 9409 05be 0112 b4bd
00000070: 90ab f63c 80c1 423e e50d 07bd eac0 fb3d
00000080: 2bf9 e83d 4f9e 5f3e 55b2 b6bc faf6 ecbd
00000090: ac95 a23d 97a9 cb3d 3b69 82be e0c6 2bbe
000000a0: 329a b63d 7603 4c3e fd4d 3f3e 5ca5 5c3c
000000b0: 3a02 d3bd 2205 1bbe 9c16 393e 9645 ef3d
000000c0: 6a6a 18be 9a76 57bd 953e 143e b298 013e
000000d0: fe70 db3d a507 6f3e 59fc 163e 597f 86bd
000000e0: c15b 7d3c 4d67 f43d 43e2 993d c4ad 493e
000000f0: 758c 35be 73aa 113d 18f0 84bd 0041 f53d
00000100: f31c cd3c 5258 393e 9018 2e3e bc18 e7bd
00000110: e738 413d 17aa 0abe 202a d13d 4358 393e
00000120: cbc6 08bd 8c24 1e3e 5af3 0f3e 96e4 02be
00000130: b6cc 2dbd e3a8 22be d44c 1dbe d0f2 af3d
00000140: dcf6 fb3d 7bf0 40be 92b3 12be de0d edbc
00000150: 89c3 9d3d 7e67 2cbc 17b1 433e 9a2e 2dbe
00000160: cbfd 4bbe c547 df3d eb64 92bd 8dea e1bd
00000170: 81a0 82bd 8f30 ec3d 181d b53d 5c0b dfbc
00000180: a7b8 29bd 4c1e 073e 92ea 85bd 0a4c 03bd
00000190: 80a5 1c3e c4b5 c2bc a49e 45be cce5 a4bd
000001a0: 32ba 173d deb4 853c 3b45 ab3c 41e1 9c3d
000001b0: 1e87 0ebc d4a5 f6bd a95d 38bd b21c 6d3d
000001c0: 5953 71be 9f00 e2bd 00c7 193e fe73 b6bd
000001d0: b5ef 8c3c c109 153d 7442 fe3d 7637 acbb
000001e0: a86b 963b ec2d 1c3e a296 923c 45fd bdbd
000001f0: d576 adbd 8ff2 69bc ec0e a3bd 0a7d b0bb
00000200: 2893 093e c3e7 8a3e 8058 f4bd 7b87 f03c
00000210: 36aa 0d3e 7fcc 99bd 679f c93c f9c8 70be
00000220: 5135 233e caa0 0a3e 8dc8 023e 2212 513d
00000230: c6cf 313d 706b 0a3e ce7e 8cba b0d9 ee3d
00000240: 2bc8 92be 0009 c4bc 9cce 3abe d2c2 83be
00000250: 7e11 293e 5bfd 4b3e 885d 8f3d cb48 e03d
00000260: 0921 a33e 9f35 bb3d ffe3 fe3b 80a4 723e
00000270: e7e5 cfbd 4862 ca3d d85d 863d bacc 5d3e
00000280: 5ad6 5fbd 2758 933e 7ef4 033e fc0d b83d
00000290: 3f7a 863e 4ba0 43be 810c 1bbd aee4 723e
000002a0: fdbd c0bd 15c0 aabd b146 39be 6ecc f8bd
000002b0: 2d8e e33c 82d3 183e 5dee 79be a81f 15be
000002c0: ea75 03bd 77bf 5ebe 9cc0 93bd b56f 933a
000002d0: f929 6fba be44 7e3d 6683 6f3e 425d 2a3d
000002e0: bfd8 593e 702b 5a3e a1b2 5c3e 3cd4 26be
000002f0: 0e0f 92bd 855d 7f3d dae6 26be b8b4 0d3e
00000300: 5290 133d 1e06 debd 6f0b c03c abf7 bf3d
00000310: b1fe 54bd 0077 363c aa0c aabc 71cf b43d
00000320: 1b38 05bd b487 bbbd 3def 89ba a827 37be
00000330: 1f74 313d b2b8 683d dd26 86bd 9005 b8bd
00000340: 8fad 8bbc d462 2dbb 2107 a0bd 46e0 813c
00000350: cb03 20bd d24e 06be 8f91 50bd f206 1a3d
00000360: e645 35bd 3c7a 28bd 16d1 39bd 9b1c a0bd
00000370: 1c91 263e 8877 8d3d 383c 633d 357e 673d
00000380: fcee bbbb ef38 48bd 9b0c 32bd 7a9d 093e
00000390: 88e5 283d 57a3 debd 0b9f 9a3c f635 b43d
000003a0: 533b 91bd a6ba a2bd 8da9 c5bd 255a 97bc
000003b0: a3d2 b23d fa6f 043e 2ec6 b6bd fa64 ff3b
000003c0: 1b4c da3d 0c62 a1bc ea4f 22be a989 87bd
000003d0: 2f9a c4bc cd74 28bd eb48 eabd 3c6b 273d
000003e0: 1d47 513d 3da5 c2bd acd7 49bd c78a c5bd
000003f0: 84b4 173e 0525 91bd ca82 6ebd c528 ddbd

predictor.gate.0.bias f4 [64]
0.14995351 0.13108744 -0.018665856 0.3080481 0.26076946 -0.15470585 -0.07919832 0.17533892
0.23930976 0.1080745 0.08660093 0.26886612 0.10306702 -0.05768468 -0.17333305 0.09056559
-0.05486327 -0.046964005 0.028098281 -0.124778576 0.25766888 -0.10012862 0.13574862 0.118400484
0.22810937 0.064572185 -0.009590876 0.04357753 -0.09002419 0.056906708 0.15767132 -0.023387427
0.14663553 0.19568707 0.115894645 -0.12839858 0.22686079 -0.07831609 -0.01416359 0.25614956
0.23665728 0.19482237 0.1514979 0.11457913 -0.04022383 -0.04903171 0.15970309 0.11646503
-0.07338965 0.12887397 -0.008789013 0.08988569 0.12330888 0.13704593 0.11362966 0.22095114
-0.08796229 0.2196847 0.2256003 0.20583515 0.14031816 0.11236484 -0.025972767 -0.10878005
00000000: 6a8d 193e c93b 063e 23e9 98bc 7bb8 9d3e
00000010: 9383 853e 366b 1ebe bb32 a2bd 0c8c 333e
00000020: 9e0d 753e 2a56 dd3d d45b b13d d2a8 893e
00000030: cd14 d33d c546 6cbd 387e 31be 747a b93d
00000040: 4fb8 60bd 545d 40bd 5e2e e63c e98b ffbd
00000050: 2ded 833e 3c10 cdbd b001 0b3e f47b f23d
00000060: 8195 693e 6c3e 843d 0d23 1dbc 5a7e 323d
00000070: 9a5e b8bd 0217 693d 9774 213e fd96 bfbc
00000080: a027 163e 3162 483e 2c5a ed3d eb7a 03be
00000090: 324e 683e 3064 a0bd 670e 68bc 0926 833e
000000a0: 4956 723e 847f 473e 4422 1b3e 77a8 ea3d
000000b0: bec1 24bd 79d5 48bd 3589 233e 3885 ee3d
000000c0: 504d 96bd 8af7 033e cbff 0fbc fd15 b83d
000000d0: 5e89 fc3d c555 0c3e abb6 e83d 0441 623e
000000e0: 9325 b4bd 07f5 603e c403 673e 73c6 523e
000000f0: 90af 0f3e 8a1f e63d d7c4 d4bc 13c8 debd

predictor.gate.3.weight f4 [1, 64]
0.18184546 0.28537863 0.10808905 0.27997875 0.24505489 -0.048249222 -0.0025606963 0.27092063
0.2064275 0.2265586 0.19171512 0.27281004 0.17149118 -0.03658281 0.056012504 0.20656966
0.10398758 0.12385409 0.07703508 0.023462519 0.33849123 0.03293034 0.2005385 0.1964542
0.24006154 0.19289467 0.021308789 0.09246334 0.012236782 0.13155057 0.25274664 0.03368003
0.20145701 0.22138447 0.16132171 0.081153184 0.2952528 0.035102367 0.13405342 0.24121805
0.29449922 0.20875368 0.27972302 0.23316176 0.10571136 0.009010457 0.2818914 0.17259678
0.030056657 0.24086148 0.0109414235 0.22571869 0.17801869 0.16731091 0.18103634 0.29403844
0.0028058088 0.25253856 0.2694231 0.26802525 0.25863227 0.22030942 0.06637809 0.06651795
00000000: b235 3a3e 261d 923e cb5d dd3d 6059 8f3e
00000010: abef 7a3e faa0 45bd 5bd1 27bb 1cb6 8a3e
00000020: bb61 533e fafe 673e f850 443e c2ad 8b3e
00000030: 629b 2f3e dbd7 15bd 5e6d 653d ff86 533e
00000040: 71f7 d43d 37a7 fd3d 91c4 9d3d 7834 c03c
00000050: b94e ad3e f7e1 063d f759 4d3e 4a2b 493e
00000060: b1d2 753e 2e86 453e c58f ae3c 6b5d bd3d
00000070: c97c 483c 31b5 063e 0268 813e 12f4 093d
00000080: bf4a 4e3e 9cb2 623e 8531 253e a433 a63d
00000090: 602b 973e 80c7 0f3d 4d45 093e dd01 773e
000000a0: 9ac8 963e 86c3 553e db37 8f3e f5c1 6e3e
000000b0: 337f d83d 99a0 133c 1254 903e 36bd 303e
000000c0: 6139 f63c 64a4 763e a843 333c cd22 673e
000000d0: 884a 363e 8d53 2b3e 9761 393e 358c 963e
000000e0: a9e1 373b bc4c 813e d3f1 893e 9b3a 893e
000000f0: 736b 843e cb98 613e 3cf1 873d 903a 883d

dynamic_graph.node_feat_pool f4 [5000, 6]
-1.2168776 -0.71616 0.0614659 0.66315186 -1.7512988 -0.6109383 0.80123216 1.8112448
-1.1718109 2.4164984 -0.31228173 -0.50734466 -1.325304 -2.0569253 0.32638958 -2.571534
-0.28171515 1.266071 1.8915577 -0.56677496 -0.64072603 0.052169114 -0.30764902 -1.1418889
-0.29804838 1.0117853 1.6962062 0.73838276 1.4604391 0.2308898 2.2472901 0.2696298
0.7471904 -0.20483541 -0.54338664 -0.82100683 0.804877 0.027987918 -0.73232436 0.14199847
-0.33264697 -0.5686126 0.07560023 -1.2056044 -1.5164036 -0.9640907 0.7896284 -0.2945314
0.19995043 -0.5377181 0.058969654 0.39843845 0.24241419 -0.5806921 1.0866641 0.9530978
-0.6542801 0.32737207 -0.09917469 0.8210552 -1.8054134 -0.64006084 -1.697168 -0.3505149
-2.4329298 0.044097725 0.80518985 0.39778525 0.9980837 -1.5794132 2.4140375 -1.1344237
2.1859813 -1.0988005 0.8997494 -0.12374119 1.0780872 -0.8300402 -1.4178357 -1.4453927
-0.13565883 -0.635452 1.6255584 0.4605449 -0.9281771 -1.407245 0.8344948 0.87546074
0.45961794 -0.5150793 -0.052183654 1.0491946 1.4302549 -0.93764126 -0.011703393 -0.39213488
0.0786798 -0.0018907348 0.547786 0.26394314 -0.5515448 -0.21917355 1.4656094 -0.3750068
1.4699425 0.5564846 0.1417008 1.5941771 -0.7211644 1.7195857 1.0350332 -1.1097518
-0.180412 -2.8316996 -0.15996803 0.08751092 1.6297386 0.92591614 -0.12547106 0.61314744
-1.9694037 0.14264621 0.34950352 -1.1644703 0.20768714 -0.033147197 -0.7103834 1.8027369
-0.6965596 1.0074606 -0.1585682 0.54023945 -1.4473307 0.4245233 -1.2355672 1.134588
-0.16801694 -0.71446824 1.3348731 -0.3728601 1.4280857 -0.719435 0.93173766 -0.7301942
0.020470588 -1.4069176 0.11800768 0.020071952 -0.13651516 -2.4017737 -1.345856 1.0154201
0.7813401 0.18005621 -0.08660988 0.34885013 -0.06044111 1.892573 0.7080358 -0.9645428
-0.5598198 -0.67318696 0.35971707 -1.18 -0.28901723 1.1416821 -0.8312436 0.30510682
-0.9840308 0.22379322 -0.69259995 0.37695262 -1.1718478 0.11260519 -2.937108 -0.28746948
0.4242688 1.1802052 -0.788403 1.7119313 -1.3691529 0.88067096 -1.4740834 -1.2271137
0.105401054 1.263854 0.6429024 0.12409265 -1.1322815 0.332785 -0.4357553 -0.9958129
-0.6674814 -0.060818184 0.33314365 0.55105525 1.0437561 1.142871 -0.081665486 1.3043628
-0.11845588 -0.32697353 -0.07643905 -0.33762208 0.8011553 -0.8269264 -1.5125964 0.4751838
1.3299811 1.7650459 0.4359737 0.22431172 0.9949278 0.17572655 -1.5224615 2.0499096
1.3837686 -1.8306196 0.50085926 -1.827596 -1.1015127 -0.50987613 -0.5782278 0.9453056
-0.63025886 0.88144296 -0.15130323 0.24887392 0.21544856 0.384765 0.021882135 1.9554518
0.8610977 1.415655 0.36457482 0.9386129 1.2472086 1.965983 -1.0379907 -0.072318465
0.39677927 1.3586915 -1.0418874 0.56672645 -2.2683096 1.0879472 -0.82654583 0.36790302
-0.6346264 -1.1716694 1.3782312 0.4956941 -0.072112985 -1.0735886 -1.2089975 -0.14137577
00000000: a5c2 9bbf 4356 37bf abc3 7b3d 52c4 293f
00000010: 8f2a e0bf 7466 1cbf 8d1d 4d3f dfd6 e73f
00000020: e6fd 95bf e9a7 1a40 64e3 9fbe 57e1 01bf
00000030: 90a3 a9bf aaa4 03c0 891c a73e 0394 24c0
00000040: f83c 90be 9d0e a23f 901e f23f 2a18 11bf
00000050: 9f06 24bf 48af 553d 2c84 9dbe 6a29 92bf
00000060: cc99 98be 2e82 813f 491d d93f a706 3d3f
00000070: abef ba3f 606e 6c3e 9ad3 0f40 eb0c 8a3e
00000080: df47 3f3f 60c0 51be 631b 0bbf 812d 52bf
00000090: 6b0c 4e3f eb46 e53c 9c79 3bbf 0c68 113e
000000a0: b450 aabe 9890 11bf 4bd4 9a3d 3f51 9abf
000000b0: 8319 c2bf a6ce 76bf 1625 4a3f d2cc 96be
000000c0: cebf 4c3e e5a7 09bf 2a8a 713d 2000 cc3e
000000d0: 6d3b 783e 3da8 14bf cf17 8b3f 38fe 733f
000000e0: e77e 27bf 509d a73e 1a1c cbbd ac30 523f
000000f0: c917 e7bf 07db 23bf cd3c d9bf b076 b3be
00000100: 1fb5 1bc0 d19f 343d ec20 4e3f 82aa cb3e
00000110: 6a82 7f3f 362a cabf 977f 1a40 cc34 91bf
00000120: 1ee7 0b40 7fa5 8cbf fa55 663f 056c fdbd
00000130: c3fe 893f 847d 54bf a47b b5bf a102 b9bf
00000140: 26ea 0abe fbac 22bf 4c12 d03f 8bcc eb3e
00000150: 049d 6dbf 9b20 b4bf 74a1 553f 321e 603f
00000160: 0b53 eb3e 3ddc 03bf 87be 55bd 024c 863f
00000170: 9812 b73f 4209 70bf 97bf 3fbc e7c5 c8be
00000180: e022 a13d 88d2 f7ba b43b 0c3f 8e23 873e
00000190: 0a32 0dbf 086f 60be 1799 bb3f e400 c0be
000001a0: 1327 bc3f c675 0e3f 041a 113e ff0d cc3f
000001b0: 3b9e 38bf 621b dc3f f87b 843f 590c 8ebf
000001c0: ecbd 38be 913a 35c0 a9ce 23be ed38 b33d
000001d0: 469b d03f d708 6d3f 7c7b 00be 3bf7 1c3f
000001e0: 6c15 fcbf d911 123e 20f2 b23e 5d0d 95bf
000001f0: f0ab 543e 5bc5 07bd b0db 35bf 15c0 e63f
00000200: bb51 32bf 78f4 803f b45f 22be 224d 0a3f
00000210: 2242 b9bf 1e5b d93e 1127 9ebf 2e3a 913f
00000220: a20c 2cbe 64e7 36bf 1fdd aa3f 85e7 bebe
00000230: 83cb b63f e42c 38bf 5c86 6e3f 02ee 3abf
00000240: efb1 a73c e015 b4bf 03ae f13d ef6d a43c
00000250: a1ca 0bbe a9b6 19c0 0245 acbf 49f9 813f
00000260: e805 483f a860 383e 8560 b1bd 7c9c b23e
00000270: 1991 77bd d53f f23f d641 353f 47ec 76bf
00000280: 5a50 0fbf fb55 2cbf d62c b83e 3d0a 97bf
00000290: 11fa 93be a422 923f 61cc 54bf f636 9c3e
000002a0: 71e9 7bbf 0d2a 653e 3b4e 31bf efff c03e
000002b0: 1cff 95bf 8d9d e63d 94f9 3bc0 332f 93be
000002c0: c339 d93e f710 973f c7d4 49bf 9120 db3f
000002d0: 6740 afbf a773 613f c4ae bcbf 1012 9dbf
000002e0: 82dc d73d f8c5 a13f 4095 243f 4a24 fe3d
000002f0: 9aee 90bf cc62 aa3e 521b dfbe 98ed 7ebf
00000300: 10e0 2abf 7d1c 79bd ce91 aa3e f511 0d3f
00000310: cd99 853f 9949 923f 3c40 a7bd 5cf5 a63f
00000320: ff98 f2bd 1369 a7be 148c 9cbd cddc acbe
00000330: 8418 4d3f 73b1 53bf c29c c1bf 4b4b f33e
00000340: d23c aa3f 06ed e13f f237 df3e f9b1 653e
00000350: 97b3 7e3f a9f1 333e 05e0 c2bf b831 0340
00000360: 541f b13f be51 eabf 5038 003f aaee e9bf
00000370: 5efe 8cbf 3e87 02bf bd06 14bf 8cff 713f
00000380: a558 21bf 3fa6 613f 3cef 1abe ced8 7e3e
00000390: 8c9e 5c3e ebff c43e 2a42 b33c 3f4c fa3f
000003a0: e670 5c3f 2f34 b53f 8da9 ba3e ef48 703f
000003b0: 88a4 9f3f 55a5 fb3f e1dc 84bf b41b 94bd
000003c0: a726 cb3e 9ae9 ad3f 915c 85bf fc14 113f
000003d0: fc2b 11c0 db41 8b3f 8298 53bf c95d bc3e
000003e0: e076 22bf 43f9 95bf e169 b03f 9ecb fd3e
000003f0: f9af 93bd 5a6b 89bf 6ec0 9abf cfc4 10be

dynamic_graph.static_feat f4 [5000, 2]
-0.35081452 0.014499182 0.46203765 1.469155 0.48584685 -0.35169983 1.7871426 0.10382911
-1.0915225 -0.45294368 -0.7161854 -0.16979115 -2.0644484 -0.38264045 -1.4879386 -1.1253148
0.36555067 -0.05814842 -0.53588736 -0.41812912 -0.047879193 -1.0514168 0.4494704 0.06725937
-1.4318061 0.95110255 1.2891828 0.27929682 0.120911956 0.6459148 1.3478304 0.17887954
-1.4984704 -0.25014466 0.9491679 0.5457684 0.187035 1.370721 -0.54884326 0.7846792
2.1367524 0.6398284 1.3261722 -0.9455726 -0.6065316 -1.7651641 -0.9934382 -0.6018005
-0.09123404 0.5495563 -1.1601315 1.360629 0.3427065 -1.0118564 -0.71467435 3.0459955
-0.25104785 -0.5788511 -2.0077507 0.4372037 0.9529956 0.33151668 -0.6968727 0.780016
0.2824645 -1.2817725 -1.9028597 1.5542873 -0.7291653 -0.09185549 -0.48580104 0.8677906
0.08675725 -1.1604874 -1.1167281 1.2369539 0.02513332 0.13401231 -0.50647414 0.50786686
-0.9761634 -0.7961624 -0.5026094 1.3220552 -2.3472867 1.422056 -1.4833235 1.2271706
0.5649542 -0.20558132 -0.08671454 -2.1915479 -1.7739414 0.06141043 0.55774397 0.0014651546
-0.64172894 0.2929034 -0.5422762 -0.2767533 -0.15234555 1.6800146 0.13813852 -0.20256975
0.53516626 0.3754086 1.4814094 -0.8567952 -0.73409545 -0.67713606 0.8038686 0.86856705
0.3271773 0.5075395 -0.30589584 -1.0152495 -1.5921926 -0.4090668 0.5196341 -0.05178016
-0.2395301 0.33422807 -0.41267785 -0.2090472 -0.5673846 -1.126445 -0.46853924 0.5456982
-1.1796585 0.17344603 0.27331266 -2.2878802 1.2976842 -0.5737709 -1.1369717 1.2792358
-1.8612143 -0.11563173 0.35884863 -0.4628612 0.5082372 0.4644875 -2.2159374 -1.2621601
-0.70376384 -1.864608 0.15693656 0.48412856 0.15002273 1.1010925 0.21083455 1.1384684
0.05805281 0.7194768 0.28433582 -1.8879397 0.063452125 -0.48192957 -1.2127552 1.0911907
0.6153461 0.10371311 0.5221426 2.527176 -0.071153805 0.08610836 2.029472 0.34123117
1.7222396 -0.26364252 -0.113619246 0.016820472 0.71419317 0.8282025 -0.20695372 0.20800574
-2.104685 -0.4452543 0.3194489 -0.3132389 -0.5174162 0.8424118 2.5655322 -2.4263813
-0.14691457 -0.8118112 -1.2271129 0.50854176 0.40724793 -1.9928987 -0.68271756 -2.2422316
-0.16404295 0.472719 -0.22958252 2.1296222 -0.81134146 -0.80557 -2.330244 -0.45984086
-1.129739 0.4626322 -2.29584 -2.664812 -1.3559304 1.3604467 1.8024752 -0.3271309
-1.7889748 0.36018082 -1.3668532 -0.10008669 0.9127323 -0.014841778 -1.3631933 -0.5801365
-0.9410786 0.6414683 0.4102514 -1.9252893 -0.6674723 1.6162455 0.57227314 1.6154901
-2.6045008 -0.06549757 -0.3352669 1.7036935 -0.33969203 -1.496588 -0.3311639 -0.7526702
1.0864038 0.98086196 0.13116299 0.67448395 0.44183654 0.0013443461 -0.25129318 0.71826774
-0.17920427 2.3750203 -0.743613 -0.53479445 -0.039777327 -0.75074875 0.048227966 2.1486528
0.024427686 0.64185274 -0.11929666 -1.8479185 2.612455 -0.058344603 -0.2745639 1.2797451
00000000: f69d b3be fa8d 6d3c 3390 ec3e 450d bc3f
00000010: ebc0 f83e 0012 b4be 17c1 e43f 5ba4 d43d
00000020: 02b7 8bbf 3ce8 e7be ed57 37bf bbdd 2dbe
00000030: ec1f 04c0 73e9 c3be c674 bebf 510a 90bf
00000040: 7529 bb3e 0a2d 6ebd ea2f 09bf 0515 d6be
00000050: f91c 44bd d394 86bf fc20 e63e 48bf 893d
00000060: 6c45 b7bf 757b 733f f103 a53f feff 8e3e
00000070: b0a0 f73d ac5a 253f b585 ac3f 332c 373e
00000080: e1cd bfbf f612 80be abfc 723f 7ab7 0b3f
00000090: 1a86 3f3e c973 af3f fe80 0cbf bce0 483f
000000a0: 8dc0 0840 cbcb 233f 03c0 a93f 0c11 72bf
000000b0: a845 1bbf e6f0 e1bf f751 7ebf 990f 1abf
000000c0: ead8 babd b9af 0c3f 307f 94bf 1729 ae3f
000000d0: 3a77 af3e 8384 81bf e6f4 36bf 97f1 4240
000000e0: 5889 80be 962f 14bf fd7e 00c0 2ad9 df3e
000000f0: 85f7 733f 8ebc a93e 4066 32bf 21af 473f
00000100: 309f 903e 1f11 a4bf e890 f3bf e3f2 c63f
00000110: 94aa 3abf bb1e bcbd eaba f8be 8627 5e3f
00000120: c9ad b13d da8a 94bf f2f0 8ebf 8154 9e3f
00000130: 64e4 cd3c 863a 093e 4aa8 01bf 9003 023f
00000140: d8e5 79bf 4dd1 4bbf 02ab 00bf 1b39 a93f
00000150: f239 16c0 ee05 b63f 8bdd bdbf ed13 9d3f
00000160: d7a0 103f e983 52be 6597 b1bd 5242 0cc0
00000170: 8310 e3bf 8189 7b3d 4fc8 0e3f 6e0a c03a
00000180: 5948 24bf 6ff7 953e 9dd2 0abf 9cb2 8dbe
00000190: 7900 1cbe b80a d73f 2f74 0d3e 726e 4fbe
000001a0: a800 093f 8e35 c03e d39e bd3f ee56 5bbf
000001b0: aeed 3bbf ca58 2dbf 55ca 4d3f 695a 5e3f
000001c0: c883 a73e 1cee 013f 619e 9cbe b2f3 81bf
000001d0: f8cc cbbf 3471 d1be be06 053f 6f17 54bd
000001e0: 6147 75be f11f ab3e 834a d3be 7810 56be
000001f0: 1e40 11bf 5a2f 90bf 60e4 efbe e1b2 0b3f
00000200: 0dff 96bf d69b 313e a3ef 8b3e a16c 12c0
00000210: 841a a63f a6e2 12bf 4a88 91bf 00be a33f
00000220: 453c eebf 54d0 ecbd 02bb b73e 25fc ecbe
00000230: d51b 023f 4ed1 ed3e ebd1 0dc0 768e a1bf
00000240: de29 34bf 7aab eebf fab3 203e b3df f73e
00000250: 8f9f 193e 99f0 8c3f 03e5 573e 55b9 913f
00000260: c9c8 6d3d a22f 383f 7794 913e 02a8 f1bf
00000270: 30f3 813d 79bf f6be 903b 9bbf 23ac 8b3f
00000280: 5287 1d3f 8a67 d43d 23ab 053f 40bd 2140
00000290: 16b9 91bd 9459 b03d dfe2 0140 dab5 ae3e
000002a0: 5972 dc3f 27fc 86be 35b1 e8bd 16cb 893c
000002b0: 5dd5 363f 1405 543f adeb 53be 75ff 543e
000002c0: 29b3 06c0 5ff8 e3be ce8e a33e d960 a0be
000002d0: 6375 04bf 4da8 573f ae31 2440 d549 1bc0
000002e0: c670 16be dcd2 4fbf 0912 9dbf cb2f 023f
000002f0: cd82 d03e 4e17 ffbf 94c6 2ebf b980 0fc0
00000300: e0fa 27be 3a08 f23e ae17 6bbe bb4b 0840
00000310: 13b4 4fbf d639 4ebf b822 15c0 4370 ebbe
00000320: 4a9b 90bf 21de ec3e 0bef 12c0 488c 2ac0
00000330: 218f adbf 1e23 ae3f 82b7 e63f b47d a7be
00000340: 20fd e4bf 9f69 b83e 0cf5 aebf 40fa ccbd
00000350: d3a8 693f ee2a 73bc 1e7d aebf d383 14bf
00000360: 87ea 70bf 4437 243f 790c d23e e16f f6bf
00000370: 77df 2abf 22e1 ce3f 7e80 123f 61c8 ce3f
00000380: 24b0 26c0 9723 86bd 1aa8 abbe a112 da3f
00000390: 1dec adbe 3290 bfbf 518e a9be ffae 40bf
000003a0: 480f 8b3f c519 7b3f 974f 063e fbaa 2c3f
000003b0: 6638 e23e c534 b03a 80a9 80be 65e0 373f
000003c0: 5381 37be 5500 1840 6c5d 3ebf 4ae8 08bf
000003d0: 8ded 22bd 1231 40bf b08a 453d 8783 0940
000003e0: 921c c83c 7650 243f cf51 f4bd 9888 ecbf
000003f0: 7632 2740 c0fa 6ebd a493 8cbe b0ce a33f

dynamic_graph.type_embeddings.weight f4 [10, 16]
0.0015203641 -1.3276138 0.0019651665 0.0022926033 -0.45386207 0.33317953 -0.50421214 0.56918216
-0.0043393252 0.00028073328 0.59559846 -0.00017400304 0.0015627083 -0.103168815 -0.00066853093 -0.001849754
-0.0008282075 -0.004406381 -5.535921e-05 -0.6420351 0.005936657 -0.00050497544 -0.003717198 0.002107486
0.0014630952 -0.0008387164 -0.12026617 -0.33714503 0.0016972108 -0.05810323 0.0013064351 -0.00064203027
0.001001783 0.014351126 -0.00023586603 0.019300286 -0.0022363386 -0.000183962 -0.7282533 0.000505948
-0.011464205 0.0044549396 -0.16720794 0.053349756 0.0023711096 0.007318674 -0.38528475 -0.06977963
0.003223712 -0.23186582 0.0018411166 -0.1874894 -0.28651503 0.000214064 -0.0027981808 0.0007672433
-0.0010762601 -0.34448007 -0.00444251 0.009443489 0.21531141 -0.2467425 -0.1370217 -0.0002664465
0.011201937 -0.0065106777 0.0024208198 -0.004504455 -0.52346903 0.011550163 0.0010624232 0.07278365
-0.00067645265 0.0014153151 0.0004631193 0.0093544535 0.07699891 -0.00435466 0.00014889875 0.00047711702
-0.0019437372 -0.0014312342 0.03575931 0.0015904413 -0.005184331 0.059661895 -0.000965497 0.22228554
-0.00015688945 0.0022073279 -0.16501833 0.7086228 0.005652482 -0.19490367 0.0030715968 -0.016978633
-1.0755845 -0.01158082 -0.010838351 -0.3331742 -0.004161476 0.28494152 0.0014923621 0.23340067
0.0023164058 0.1755444 -0.0050997967 -0.3945132 -8.4013234e-05 0.00088954327 -0.0007224329 0.0021413234
0.13058393 0.0125896875 -0.20922425 -0.0044395006 0.00043767993 0.00018615741 -0.09040033 0.9176766
0.0014432522 0.41577706 0.73147446 -0.0011552095 -0.6285789 -0.0047967164 -0.0041341614 0.006392815
-0.5433162 -0.0008422056 -0.0007115034 -0.0044247676 0.003816058 0.00048820194 -0.0045064916 0.006648619
-0.0067890976 -0.0008598014 -0.037191045 -0.0037539266 -0.5022633 0.34636903 0.0065200664 -0.5328739
-0.25408903 0.28388426 -1.3535441 0.00023769168 -0.027121032 -0.0025570379 0.00012918594 -0.15960541
-0.0030150623 0.010713581 -0.011428943 -0.00083551975 0.00037855352 -1.0194722 -0.5423143 0.023367682
00000000: f446 c73a 40ef a9bf 06ca 003b 803f 163b
00000010: 9c60 e8be 8296 aa3e 0c14 01bf ecb5 113f
00000020: e630 8ebb 622f 9339 2479 183f 9674 36b9
00000030: cad3 cc3a 2c4a d3bd 5a40 2fba 7273 f2ba
00000040: 111c 59ba 6763 90bb 8031 68b8 6a5c 24bf
00000050: 4a88 c23b 5460 04ba 3c9c 73bb bf1d 0a3b
00000060: 54c5 bf3a 4edd 5bba 1c4e f6bd 469e acbe
00000070: f274 de3a a7fd 6dbd b03c ab3a ec4d 28ba
00000080: 424e 833a fc20 6b3c ce52 77b9 a21b 9e3c
00000090: 898f 12bb ece5 40b9 cf6e 3abf 98a1 043a
000000a0: 5cd4 3bbc befa 913b 8f38 2bbe 4685 5a3d
000000b0: 9e64 1b3b 7dd1 ef3b 0b44 c5be 9fe8 8ebd
000000c0: ea44 533b 3c6e 6dbe 9f51 f13a 39fd 3fbe
000000d0: 19b2 92be 5e76 6039 af61 37bb d420 493a
000000e0: 4c11 8dba b15f b0be 7a92 91bb ddb8 1a3c
000000f0: 987a 5c3e 11aa 7cbe 6b4f 0cbe d8b1 8bb9
00000100: 5488 373c 8657 d5bb 9ea6 1e3b 1b9a 93bb
00000110: 1102 06bf e53c 3d3c 0241 8b3a 980f 953d
00000120: f853 31ba 1882 b93a d2ce f239 6c43 193c
00000130: 9bb1 9d3d 89b1 8ebb b421 1c39 9025 fa39
00000140: ffc4 feba 4098 bbba 5b78 123d 5b76 d03a
00000150: 52e1 a9bb 0860 743d 6819 7dba d29e 633e
00000160: b182 24b9 d1a8 103b 91fa 28be 4e68 353f
00000170: 7538 b93b d494 47be d84c 493b c616 8bbc
00000180: c1ac 89bf 7bbd 3dbc 5793 31bc cf95 aabe
00000190: fe5c 88bb dbe3 913e 5d9b c33a 9600 6f3e
000001a0: d7ce 173b e9c1 333e 321c a7bb a2fd c9be
000001b0: 4330 b0b8 3d30 693a a761 3dba 7255 0c3b
000001c0: cbb7 053e fa44 4e3c e23e 56be 3b79 91bb
000001d0: 6878 e539 4033 4339 cf23 b9bd dbec 6a3f
000001e0: 822b bd3a bbe0 d43e e941 3b3f 666a 97ba
000001f0: 8cea 20bf c62d 9dbb dc77 87bb d27a d13b
00000200: c516 0bbf 76c7 5cba 2f84 3aba a4fd 90bb
00000210: d416 7a3b 5bf5 ff39 31ab 93bb a9dc d93b
00000220: 1477 debb 4c64 61ba a355 18bd 7004 76bb
00000230: 5494 00bf 4857 b13e 48a6 d53b 6d6a 08bf
00000240: f517 82be 4759 913e ef40 adbf e03c 7939
00000250: ed2c debc fa93 27bb 1676 0739 9a6f 23be
00000260: 5a98 45bb 0488 2f3c 7640 3bbc c806 5bba
00000270: 9878 c639 117e 82bf 1cd5 0abf 956d bf3c

conv1.convs.<network___self_loop___network>.att_src f4 [1, 2, 64]
0.00035307213 -0.00077892595 0.0007135556 0.00032850562 -0.00045188091 0.00058778 0.00047801717 0.00014345709
-0.0005741834 0.00024601386 0.00018321048 -0.00014995932 0.0007419755 -0.00084995665 0.00026733428 -0.00067917805
-0.0002825164 -0.0005120344 0.0004701139 0.00042649955 0.00037028157 -0.00016598971 0.00047440061 0.00070508535
0.0003768237 -0.0008038827 -0.00016687842 2.5070593e-05 0.00011738774 0.00034804386 -0.00058113347 0.0003282302
0.0003066817 -7.5926015e-05 0.00038939517 0.00035766984 -0.00026892652 -0.00034593287 -0.00010674074 7.063047e-05
0.00026466913 -9.397219e-06 -0.0002215143 -0.00026244082 0.0006784397 0.0008015319 -0.00072455785 -0.00028003214
-0.0005036465 -0.00040520838 0.001119831 -0.00074055785 0.00016740817 -0.00021557625 -0.0004563332 -0.0010574465
0.00020912377 -6.205714e-05 -7.688993e-05 -0.00048543367 4.6848145e-05 -0.00029030524 0.00032402299 0.0007384422
-0.00026951724 0.00016602321 -0.00024041421 -0.0005808463 0.00048924744 2.9113202e-05 0.0004163071 -2.3849221e-05
0.00041625754 -0.00059837865 0.00029021877 2.8687937e-05 -0.00013359683 -0.00029892294 0.00031511884 0.00044237362
5.0276867e-06 -0.0002750064 6.138999e-05 0.0006404859 0.0006755515 0.0005915837 -0.00018754395 -0.00019912588
-0.00015091366 0.00037241547 -0.0002983193 -1.7466635e-05 -0.00023291985 -0.0007425074 -0.00034798548 -0.00032171386
1.2069155e-05 0.00012433715 0.0005176336 -0.00019406603 9.9456374e-05 -0.0009457903 -0.00039240485 0.00013356804
0.00040924747 0.00033750234 -0.0001302401 -0.00035134814 -3.058114e-05 -0.00039582586 -0.0002551519 -0.0005504251
8.369124e-05 -0.00042072643 0.00020224875 0.00067974237 -0.0004872605 0.0002323906 6.3404004e-05 0.00030913798
-0.00033932293 0.0003627662 -7.631839e-05 0.00010438473 6.115605e-05 0.0003564321 0.000113047485 2.4497102e-05
00000000: 8a1c b939 d630 4cba e80d 3b3a 473b ac39
00000010: 6eea ecb9 4015 1a3a 619e fa39 f86c 1639
00000020: cc84 16ba 6cfb 8039 301c 4039 663e 1db9
00000030: 2281 423a a0cf 5eba 0029 8c39 de0a 32ba
00000040: b61e 94b9 0c3a 06ba 9f79 f639 cd9b df39
00000050: 5a22 c239 860d 2eb9 f9b8 f839 7ad5 383a
00000060: 6c90 c539 a8bb 52ba 16fc 2eb9 b04e d237
00000070: 102e f638 a879 b639 3557 18ba 5016 ac39
00000080: 1fca a039 783a 9fb8 bc27 cc39 a285 bb39
00000090: b5fe 8cb9 535e b5b9 00da dfb8 721f 9438
000000a0: 4ac3 8a39 c0a8 1db7 4b46 68b9 3698 89b9
000000b0: 51d9 313a e51d 523a 41f0 3dba 47d1 92b9
000000c0: 2507 04ba 2672 d4b9 4bc7 923a ff21 42ba
000000d0: 4a8a 2f39 4f0c 62b9 0140 efb9 049a 8aba
000000e0: 3c48 5b39 ac24 82b8 f83f a1b8 ce81 feb9
000000f0: d07e 4438 1c34 98b9 a1e1 a939 0494 413a
00000100: fe4d 8db9 8416 2e39 b317 7cb9 ef43 18ba
00000110: d740 003a 2038 f437 cb43 da39 d00f c8b7
00000120: 243d da39 83dc 1cba 8128 9839 e0a6 f037
00000130: 2016 0cb9 c2b8 9cb9 8936 a539 62ee e739
00000140: 80b3 a836 bc2e 90b9 80be 8038 48e6 273a
00000150: 7e17 313a 8314 1b3a 72a7 44b9 72cc 50b9
00000160: 943e 1eb9 c240 c339 bd67 9cb9 5085 92b7
00000170: f23b 74b9 d4a4 42ba d271 b6b9 b4ab a8b9
00000180: a07c 4a37 8060 0239 ceb1 073a 347e 4bb9
00000190: 3c93 d038 eaee 77ba b0bb cdb9 660e 0c39
000001a0: 4490 d639 ccf2 b039 1091 08b9 2635 b8b9
000001b0: 4044 00b8 d986 cfb9 e9c5 85b9 674a 10ba
000001c0: 6483 af38 f294 dcb9 bc12 5439 bd30 323a
000001d0: ff76 ffb9 e0ad 7339 c4f7 8438 cc13 a239
000001e0: 27e7 b1b9 a831 be39 200d a0b8 20e9 da38
000001f0: e840 8038 82df ba39 e813 ed38 207f cd37

conv1.convs.<network___self_loop___network>.att_dst f4 [1, 2, 64]
-3.6856465e-05 0.00016499226 -0.0004907598 -0.00037101185 -0.00027045453 -6.4526015e-05 -0.00039154955 0.00035891068
-0.00020323996 -0.00029864383 -0.00044616446 -0.00021710905 -0.00044053202 -0.00025825895 0.00064358633 -4.3055363e-05
0.000111756206 -0.00034709912 -0.0015589515 -0.0005099158 4.4326618e-05 0.0005953639 6.0249527e-05 0.00030351596
-0.0001924528 -0.00011752779 0.00041104172 -2.0756474e-05 -0.00022171915 0.00025159694 -0.0009453269 0.00037155935
0.00043608414 7.371881e-05 0.00035199168 1.6063743e-05 0.00038856696 -0.001157644 -0.0004152579 0.00041645145
0.00012694669 -0.00040703503 -0.00018127974 0.0004767137 0.00034228456 -0.00028617508 0.00028125467 0.00017138908
-0.0008003628 0.00048737848 -2.23206e-05 0.0003952841 0.00025039673 -0.0013222961 0.00043368916 0.00040016108
-0.00034692982 -0.00029799007 -0.00035097587 -3.6087702e-05 0.00038634034 0.00031113398 0.00063513004 0.0004621459
-1.65136e-05 -0.00015894187 -0.0001306439 6.264815e-05 0.0006338097 -0.0002797307 -0.00046144545 -0.0013068147
-0.000337559 -0.0002695148 -0.00019532262 0.0002440188 0.00016419808 -0.00091477745 0.000372852 -0.00073212443
-0.00033188076 4.6172223e-05 4.38126e-05 -0.00032149992 -0.0002700032 0.0007907904 -0.00058415416 -9.520659e-05
-2.3532542e-05 -0.0011644936 -0.00028924464 -0.00041958928 -0.00075025443 0.00035043526 -0.00041812484 0.0012443989
-0.00014179217 -0.00040736346 -6.339495e-05 -0.00031908826 0.0002049882 0.000725945 0.00027870233 4.3936016e-05
-0.00015856975 -0.0008028349 -0.00036535328 0.0004269721 -0.0006458942 -0.00022605411 0.00022759897 -0.00018270014
0.00077388575 -0.0005420464 0.0004276369 0.00034386478 -0.0003205054 -0.00039206463 -0.0003279857 0.00010890921
0.00057761505 0.00038764786 0.000903348 0.00053459627 1.6483304e-05 1.3318728e-05 -2.9767863e-05 -0.00026098645
00000000: 5496 1ab8 c601 2d39 55a6 00ba 5e84 c2b9
00000010: cbcb 8db9 2452 87b8 e448 cdb9 2d2c bc39
00000020: d01c 55b9 4c93 9cb9 2eeb e9b9 c4a7 63b9
00000030: 35f7 e6b9 ee66 87b9 59b6 283a 5896 34b8
00000040: a85e ea38 dbfa b5b9 bb55 ccba dfab 05ba
00000050: 58eb 3938 3212 1c3a 70b4 7c38 3921 9f39
00000060: 28cd 49b9 4079 f6b8 1681 d739 301e aeb7
00000070: 487d 68b9 c5e8 8339 d0cf 77ba dacd c239
00000080: 39a2 e439 7c99 9a38 868b b839 a0c0 8637
00000090: 93b8 cb39 16bc 97ba f9b6 d9b9 2b57 da39
000000a0: fe1c 0539 5167 d5b9 e915 3eb9 6eef f939
000000b0: a874 b339 c509 96b9 5d75 9339 e8b6 3339
000000c0: 70cf 51ba d586 ff39 203d bbb7 223e cf39
000000d0: ae47 8339 e550 adba c660 e339 b6cc d139
000000e0: 22e4 b5b9 8d3b 9cb9 2f03 b8b9 e05c 17b8
000000f0: b98d ca39 b21f a339 db7e 263a 2c4c f239
00000100: b086 8ab7 a2a9 26b9 74fd 08b9 f861 8338
00000110: 4026 263a d2a8 92b9 29ee f1b9 6d49 abba
00000120: 67fa b0b9 aa4d 8db9 84cf 4cb9 4cdf 7f39
00000130: 962c 2c39 adcd 6fba 597b c339 0aec 3fba
00000140: 4800 aeb9 0ca9 4138 6cc3 3738 fd8e a8b9
00000150: 378f 8db9 0c4d 4f3a ec21 19ba a6a9 c7b8
00000160: c067 c5b7 eca1 98ba c2a5 97b9 52fc dbb9
00000170: b9ac 44ba a0ba b739 c437 dbb9 191b a33a
00000180: 0cae 14b9 6693 d5b9 e8f2 84b8 4d4b a7b9
00000190: 1af2 5639 584d 3e3a cb1e 9239 f047 3838
000001a0: be45 26b9 5775 52ba e38c bfb9 3adb df39
000001b0: 3a51 29ba f008 6db9 a2a7 6e39 3293 3fb9
000001c0: 98de 4a3a 1e18 0eba 7434 e039 c048 b439
000001d0: 8209 a8b9 068e cdb9 7ff5 abb9 3066 e438
000001e0: 176b 173a 373d cb39 a8ce 6c3a 2624 0c3a
000001f0: a045 8a37 8073 5f37 00b6 f9b7 02d5 88b9

conv1.convs.<network___self_loop___network>.bias f4 [128]
0.040561363 0.00069671916 0.17890705 0.05073142 0.013810532 -0.05251497 -0.01809981 0.022010755
0.089610375 -0.05392949 -0.067971386 -0.04828771 0.10192536 -0.006192884 -0.01973439 0.026651477
-0.012790418 0.098595135 -0.047157314 0.021917209 -0.0003187773 -0.0043062153 -0.019300165 0.052477323
0.2545915 0.0566523 -0.019433115 0.01205536 -0.026944807 0.00026821365 -0.032648016 0.050962355
0.082772315 -0.058390994 -0.06795698 0.06004168 -0.07005261 -0.06631524 0.27144107 0.0905276
0.1031209 0.085475415 0.2266315 0.090738446 0.07256423 0.17493442 -0.029016986 -0.017018436
0.0076140384 0.018548483 0.04577332 -0.013276615 -0.055773336 -0.07641296 -0.05561705 -0.017352566
-0.073104225 -0.00010551703 0.012501984 0.116422765 -0.014412917 0.01785938 -0.08812538 0.08403016
0.064627126 0.029464498 -0.059731137 0.3043686 0.19130814 8.671946e-05 -0.022685168 0.067840904
-0.057446077 0.092074014 -0.033985827 0.045319222 0.0526585 -0.01913933 -0.029212903 -0.04210172
0.018925227 -0.04348287 -0.032055292 -0.04533215 -0.05294174 0.02588917 -0.03359252 -0.04595076
-0.00065258215 0.08355235 -0.05272463 -0.026681848 0.064782254 -0.029813418 0.09822538 -0.015818119
0.07451499 -0.02556387 -0.012049952 -0.05030049 -0.056494873 -0.04536 -0.061117765 -0.036490172
-0.07445962 0.18697305 -0.047479495 0.10024729 -0.077131115 -0.025738582 0.063562244 0.06440072
-0.009075342 0.08440079 -0.09281239 0.15613955 -0.06781135 -0.025276788 0.076811194 0.04823984
0.06935866 0.0028658872 -0.0508813 0.026167799 -0.062411852 0.08749113 0.00029402817 0.010121359
00000000: ac23 263d 08a4 363a 6933 373e c0cb 4f3d
00000010: 9245 623c f019 57bd 0e46 94bc e64f b43c
00000020: a585 b73d 2be5 5cbd 9534 8bbd 55c9 45bd
00000030: 3ebe d03d aded cabb 04aa a1bc 3354 da3c
00000040: e78e 51bc 3fec c93d 0728 41bd b88b b33c
00000050: 9121 a7b9 271b 8dbb 611b 9ebc 76f2 563d
00000060: d159 823e 3e0c 683d 3232 9fbc d883 453c
00000070: 5bbb dcbc 079f 8c39 edb9 05bd e7bd 503d
00000080: 8884 a93d 652b 6fbd 072d 8bbd 44ee 753d
00000090: be77 8fbd 49d0 87bd 53fa 8a3e 8966 b93d
000000a0: 0d31 d33d bc0d af3d 1712 683e 14d5 b93d
000000b0: 8e9c 943d 0222 333e 08b5 edbc 3f6a 8bbc
000000c0: 2f7f f93b fdf2 973c ce7c 3b3d 2986 59bc
000000d0: 9572 64bd 667e 9cbd b4ce 63bd f826 8ebc
000000e0: abb7 95bd 0649 ddb8 1fd5 4c3c 0f6f ee3d
000000f0: 2824 6cbc d64d 923c 147b b4bd 0118 ac3d
00000100: 3a5b 843d 885f f13c a3a8 74bd 33d6 9b3e
00000110: 48e6 433e 28dd b538 3fd6 b9bc 2cf0 8a3d
00000120: 944c 6bbd 4d91 bc3d b934 0bbd a6a0 393d
00000130: 70b0 573d 16ca 9cbc e64f efbc da72 2cbd
00000140: 1409 9b3c 181b 32bd 694c 03bd 34ae 39bd
00000150: 70d9 58bd 8615 d43c 4f98 09bd dd36 3cbd
00000160: 0c12 2bba 7f1d ab3d c8f5 57bd e493 dabc
00000170: 8fac 843d 453b f4bc 632a c93d 0095 81bc
00000180: 519b 983d 526b d1bc 296d 45bc e307 4ebd
00000190: 2b67 67bd 68cb 39bd 9f56 7abd b876 15bd
000001a0: 497e 98bd dd75 3f3e dc79 42bd 744e cd3d
000001b0: ebf6 9dbd b8d9 d2bc ec2c 823d 86e4 833d
000001c0: beb0 14bc 52da ac3d 6c14 bebd 0ce3 1f3e
000001d0: ade0 8abd 4411 cfbc 304f 9d3d 2397 453d
000001e0: ea0b 8e3d 9cd1 3b3b e968 50bd da5d d63c
000001f0: 92a3 7fbd 8d2e b33d cb27 9a39 0ed4 253c

conv1.convs.<network___self_loop___network>.lin.weight f4 [128, 32]
-0.06701313 -0.14725505 0.12836234 -0.033776384 -0.21988244 -0.094117686 -0.07058354 -0.077632554
-0.08164226 0.09054321 0.010466831 0.2519346 0.08335558 -0.10288532 -0.24056993 0.064638026
0.04279649 -0.07881243 -0.11102623 -0.20818363 0.031415775 0.22933012 -0.0011014732 0.00020543826
0.0007234134 0.00082368916 -6.348929e-05 0.00020629061 0.0012302313 0.0010572411 -0.18857284 -0.0010281089
0.019132571 0.0026884999 0.00025588786 0.0005788919 0.07509697 6.3961896e-05 0.0019684483 0.06273484
0.001390667 -0.0005125953 0.022665765 -0.050685998 0.0038687235 -0.045823164 -0.006369024 -0.0009889455
-0.08197107 -0.00016162105 -0.005267222 0.034909915 0.0031360602 0.0015240054 0.0010944478 -0.00087798573
0.00023575997 0.0010370621 -6.432099e-05 0.00087932625 -5.6105462e-05 0.00044893537 -0.0023885947 0.001045416
-0.043526772 -0.0355456 6.755916e-05 0.032749206 -0.041864574 -0.03086856 -0.013141323 -0.069018245
-0.014267643 -0.016583968 -0.041245777 0.046486516 -0.04191877 0.048320718 -0.020997297 8.396694e-05
0.034414604 0.011913003 -0.026181176 -0.04243535 -0.011136771 0.014455638 9.571355e-05 0.00042198613
0.000468468 0.00068791024 0.00018585523 0.00022994325 0.00021632826 0.00019400935 -0.017726231 0.00082591164
-0.024784135 -0.120326765 0.18519515 0.016152086 -0.2921091 -0.12609227 -0.16831747 -0.11261434
0.0030694196 -0.19394605 -0.25035408 0.107842356 -0.23209551 -0.016398594 0.034661192 0.14346965
0.2568307 -0.006548357 -0.26796 -0.07601003 -0.10130134 0.2324133 -0.001009203 -1.7371254e-05
-0.0008632788 0.001268561 -0.00016911725 -0.0010782604 0.00095635897 -0.0012063734 -0.27993938 0.07563606
0.003813192 -0.004744864 -0.00010747179 0.0048708776 0.040094767 -0.0038831974 0.0018784552 0.035899583
0.0023894126 0.0027037289 0.02776926 -0.017521687 0.0072134268 -0.023449346 -0.00042913877 -0.00049843953
0.0033938428 -0.001371702 -0.0032124114 0.0015294175 -0.00082187867 -0.00220675 0.00010678167 -0.0012847816
9.312758e-05 -0.00023798751 -0.0011735974 0.0010066477 0.00088011095 -0.00051334524 -0.0012523418 -9.603081e-05
0.0306894 -0.00097224594 0.000775071 0.00032214294 0.011218929 0.00032296337 -0.0012993959 0.07862629
-0.0005155047 0.00056269276 0.04837678 -0.014392525 -0.01562535 -0.059864547 -0.0034752968 -0.0006353612
0.017795503 -0.0023347526 -0.005159548 0.010597197 0.0034695156 -0.0028272807 6.76622e-05 0.00043509313
0.0004295584 -4.46267e-05 0.000113347356 0.000672377 -0.0012668149 0.0009715281 -0.0008502565 -0.00047533086
0.123541735 0.07925146 -0.0027135937 -0.106543034 0.20696217 0.15904239 0.09609412 0.1470086
0.09805295 0.10635462 -0.09778341 0.0075243926 -0.06735854 -0.10537019 0.0027192414 -0.026644953
0.030641846 -0.14002341 -0.0013487423 -0.07975202 0.105336286 -0.07183127 -0.0004640705 -0.0012146166
-5.9665188e-05 0.00089386944 -0.00021345334 -0.00064195687 -0.0010025029 -0.00048691727 0.021361884 -0.000838698
-0.17858739 -0.27310696 0.031156726 0.021823835 -0.28599823 0.08256752 -0.08688341 -0.15108864
-0.20953125 -0.26551217 -0.2830241 0.22870249 -0.1802768 0.11442916 -0.2151752 -0.005191641
0.15061527 0.013320446 0.0023268792 -0.2664521 -0.104899414 0.1978925 0.00037485367 -0.0006212384
-0.00014776138 -9.474412e-05 0.0008012162 -0.0005510142 -0.00013824289 0.00038539356 0.034149714 0.061227106
00000000: 2e3e 89bd 07ca 16be 6b71 033e 1b59 0abd
00000010: dd28 61be c6c0 c0bd 1a8e 90bd d1fd 9ebd
00000020: 0f34 a7bd b86e b93d 127d 2b3c 92fd 803e
00000030: 55b6 aa3d 8ab5 d2bd f757 76be f160 843d
00000040: 5f4b 2f3d 6968 a1bd b861 e3bd 172e 55be
00000050: d4ad 003d 84d5 6a3e 4f5f 90ba ea6a 5739
00000060: 74a3 3d3a d8ec 573a 8e25 85b8 b74f 5839
00000070: b63f a13a 2093 8a3a 3d19 41be 9cc1 86ba
00000080: e9bb 9c3c 8b31 303b b028 8639 c7c0 173a
00000090: 71cc 993d 4823 8638 1501 013b 207b 803d
000000a0: 0b47 b63a b05f 06ba 8ead b93c 1f9c 4fbd
000000b0: 698a 7d3b 12b1 3bbd 3fb3 d0bb 819f 81ba
000000c0: 73e0 a7bd d278 29b9 a998 acbb b3fd 0e3d
000000d0: 5c86 4d3b 23c1 c73a 9373 8f3a a028 66ba
000000e0: 5636 7739 08ee 873a 12e4 86b8 9682 663a
000000f0: c852 6bb8 165f eb39 f889 1cbb 5706 893a
00000100: 2149 32bd 4398 11bd 8cae 8d38 0824 063d
00000110: 307a 2bbd 10e0 fcbc b44e 57bc 7059 8dbd
00000120: d5c2 69bc 1adb 87bc 55f1 28bd a568 3e3d
00000130: 04b3 2bbd f2eb 453d 8602 acbc 6817 b038
00000140: 54f6 0c3d c22e 433c e879 d6bc b1d0 2dbd
00000150: 0177 36bc 57d7 6c3c d2b9 c838 053e dd39
00000160: b69c f539 e054 343a 22e2 4239 ec1c 7139
00000170: 2dd6 6239 fd6e 4b39 9a36 91bc fe81 583a
00000180: 1908 cbbc e16d f6bd cca3 3d3e 6151 843c
00000190: 538f 95be 551e 01be 6a5b 2cbe 59a2 e6bd
000001a0: 5128 493b cb99 46be 692e 80be 74dc dc3d
000001b0: 72aa 6dbe 5856 86bc e5f8 0d3d b5e9 123e
000001c0: 507f 833e 9a93 d6bb 0e32 89be 26ab 9bbd
000001d0: 1477 cfbd c1fd 6d3e 3c47 84ba 7cb8 91b7
000001e0: a94d 62ba d845 a63a 1155 31b9 6a54 8dba
000001f0: 2ab4 7a3a 2d1f 9eba 3754 8fbe 14e7 9a3d
00000200: bfe6 793b ce7a 9bbb 7a62 e1b8 e29b 9f3b
00000210: 693a 243d 3e7d 7ebb 7f36 f63a 710b 133d
00000220: b197 1c3b 0b31 313b 5c7c e33c a489 8fbc
00000230: 9c5e ec3b d818 c0bc 08fe e0b9 b6a9 02ba
00000240: 3c6b 5e3b aeca b3ba 5287 52bb bc76 c83a
00000250: 5873 57ba 1f9f 10bb f9ef df38 1e66 a8ba
00000260: 7d4d c338 498c 79b9 65d3 99ba 7ef1 833a
00000270: 3fb7 663a 0492 06ba 9e25 a4ba 2664 c9b8
00000280: 5668 fb3c 52de 7eba 222e 4b3a 4be5 a839
00000290: 99cf 373c 6953 a939 7e50 aaba d206 a13d
000002a0: ef22 07ba ac81 133a bb26 463d a0ce 6bbc
000002b0: bc00 80bc 8734 75bd cec1 63bb 5e8e 26ba
000002c0: e0c7 913c a602 19bb 6d11 a9bb de9f 2d3c
000002d0: d060 633b e649 39bb dee5 8d38 361d e439
000002e0: 5a36 e139 8e2d 3bb8 e6b4 ed38 7542 303a
000002f0: 410b a6ba 26ae 7e3a bfe3 5eba d435 f9b9
00000300: 7303 fd3d 974e a23d 8cd6 31bb 3c33 dabd
00000310: e4ed 533e 02dc 223e fecc c43d 6c89 163e
00000320: fccf c83d 73d0 d93d ab42 c8bd 2e8f f63b
00000330: 46f3 89bd 54cc d7bd 4d35 323b 8446 dabc
00000340: 9c04 fb3c 4c62 0fbe 48c8 b0ba 0755 a3bd
00000350: 8dba d73d 461c 93bd 7d4e f3b9 c533 9fba
00000360: 0241 7ab8 9052 6a3a 72d2 5fb9 ff48 28ba
00000370: 6a66 83ba ee48 ffb9 1eff ae3c 12dc 5bba
00000380: 9ddf 36be add4 8bbe 643c ff3c e6c7 b23c
00000390: 5c6e 92be 2919 a93d eeef b1bd fbb6 1abe
000003a0: 5c8f 56be 36f1 87be 89e8 90be fc30 6a3e
000003b0: 7b9a 38be d659 ea3d e356 5cbe a41e aabb
000003c0: e43a 1a3e 003e 5a3c 8e7e 183b 696c 88be
000003d0: 81d5 d6bd 55a4 4a3e 0288 c439 9ada 22ba
000003e0: 65f0 1ab9 5db1 c6b8 b608 523a f071 10ba
000003f0: 4bf5 10b9 a60e ca39 92e0 0b3d 46c9 7a3d
